dcnn/checkpoints/dcnn_100.pt (torch_old, 10844 bytes, 3 tensors)

conv2.weight f4 [1, 30, 5, 5]
0	0xbccaf41d	-0.024774605
1	0x3cb47f21	0.022033276
2	0x3ba3f327	0.0050033513
3	0x3d2e6ab6	0.042582236
4	0xbd7bfbb2	-0.061519332
5	0x3beb770a	0.0071858214
6	0x3c38f897	0.011289737
7	0x3c9b9e9a	0.018996526
8	0x3c2ad0c7	0.010425753
9	0x3b4419d5	0.0029922624
10	0x3c99ecd0	0.018789679
11	0xbb8cf978	-0.0043022
12	0x3d1522ff	0.036410328
13	0xbc25f167	-0.010128356
14	0x3c8376a2	0.01604778
15	0x3ba8373a	0.0051335366
16	0x3c9e90a8	0.019356087
17	0x3cd19378	0.025583014
18	0xbc6b0051	-0.014343337
19	0x3cdf21d9	0.02723782
20	0x3cdaebc7	0.026723756
21	0xbc958df3	-0.018256163
22	0x3b1f9d76	0.0024355329
23	0x3b2a0bc8	0.0025946964
24	0xbcd2978a	-0.025707025
25	0xbc8f563f	-0.01749718
26	0x3c152395	0.009102722
27	0xbb2edd2e	-0.0026682126
28	0x3c9468f8	0.01811646
29	0xbb9a178c	-0.004702514
30	0x3bf5ae32	0.0074975723
31	0xbd4ce1d4	-0.050020054
32	0xbd483c2a	-0.048885502
33	0x3a50372f	0.00079427933
34	0x3cccc0a5	0.024994204
35	0xbd047145	-0.032334585
36	0xbc16a227	-0.009193934
37	0x3cdd077f	0.026981113
38	0xbcb0a9d0	-0.021565348
39	0x3af2d7d7	0.001852746
40	0xbc2cc888	-0.010545857
41	0xbc972fc3	-0.018455392
42	0xbd021242	-0.031755693
43	0xbb8cf144	-0.004301222
44	0x3c155a4f	0.0091157695
45	0x3c02a7f9	0.007974618
46	0xbcb957b9	-0.022624837
47	0x3c056706	0.0081422385
48	0xbcbc8b1c	-0.023015551
49	0xba6d6ff7	-0.00090575166
50	0xbc7367ef	-0.014856323
51	0xbc7d2d7b	-0.015452738
52	0xbab2a6ad	-0.0013629996
53	0xbc823261	-0.015893163
54	0x3bd548c2	0.0065089175
55	0x3c837698	0.01604776
56	0xbb153541	-0.0022767338
57	0xbbb82f5a	-0.005620879
58	0xbbb9f451	-0.0056748767
59	0xbc18dfb0	-0.009330675
60	0xbcc430a9	-0.023948984
61	0xbd0d2ec6	-0.034468435
62	0x3bcc98e6	0.006243813
63	0xbb56d66f	-0.003278162
64	0x3c6450bd	0.013935265
65	0xbc096397	-0.0083855605
66	0x3bf2e833	0.007412934
67	0xbc84c755	-0.01620833
68	0xbce293ae	-0.02765831
69	0x3cb49036	0.022041421
70	0xbc3dba4b	-0.01158006
71	0x3c46cb0a	0.012133369
72	0x3ceae791	0.028674873
73	0x3cc16d78	0.02361177
74	0x3c8b010b	0.01696827
75	0x3cda9fb4	0.02668748
76	0xbc57e0b3	-0.013176131
77	0xbd1ebd61	-0.038754825
78	0xbb10c17d	-0.0022087984
79	0x3d2de98a	0.04245905
80	0x3c80a4b7	0.015703542
81	0x3c9a690c	0.018848918
82	0xbcfdee44	-0.030997403
83	0xbcc74fb4	-0.024329998
84	0x3b2afff4	0.0026092501
85	0xbb518e55	-0.0031975706
86	0x3d1a6c0e	0.037700705
87	0x3ca75974	0.020428397
88	0x3c50c6ea	0.012742737
89	0xbc9fd231	-0.019509407
90	0xbcd6e971	-0.02623436
91	0x3c2fd0f5	0.010730972
92	0xbb6b1362	-0.0035869707
93	0x3ce66f55	0.02812926
94	0xbcc9cc54	-0.024633564
95	0xbc17689d	-0.00924125
96	0x3b0eb5ba	0.0021775798
97	0x3cdc8ddf	0.026923118
98	0xbcf83807	-0.030300153
99	0xbcf9b15d	-0.030480081
100	0x3d1d98af	0.03847569
101	0x3b5c8ed2	0.0033654463
102	0x3cbe9083	0.023262268
103	0xbcf3fbe9	-0.029783206
104	0x3cf80f7f	0.030280827
105	0x3c10254d	0.008797956
106	0xbd34a6c1	-0.04410434
107	0xbd0da145	-0.034577627
108	0x3c78c85a	0.015184486
109	0xbd6742a8	-0.056460053
110	0xbc9a9a37	-0.018872363
111	0x3ce7a770	0.028278083
112	0xbcb13217	-0.02163033
113	0x3cbf073a	0.023318876
114	0xbbd4d99f	-0.006495669
115	0xbcfeae92	-0.031089101
116	0x3c6e9d82	0.01456392
117	0xbcddbdf4	-0.027068116
118	0x3c4cae1e	0.012492685
119	0x3c994158	0.018707916
120	0x3d49c00d	0.04925542
121	0x3d4a40a9	0.04937807
122	0xbd254621	-0.040350083
123	0xbd6d70c2	-0.057968862
124	0x3cb0b5aa	0.021571
125	0xbc45eaf4	-0.012079943
126	0x3c213e27	0.009841478
127	0xba870013	-0.0010299705
128	0x3cf52427	0.029924465
129	0xbd4e2ade	-0.05033385
130	0x3a8572e7	0.0010181338
131	0x3cbe496b	0.023228368
132	0xba54d9df	-0.00081196235
133	0x3ccc0e92	0.024909291
134	0x3d78755a	0.06065879
135	0xbc7668c3	-0.015039626
136	0xbd112e6a	-0.035444655
137	0x3c5be3fb	0.013421054
138	0xbc42f687	-0.011899597
139	0x3d5d2538	0.053990573
140	0xbca2eb3e	-0.019887563
141	0x3c1debd5	0.009638746
142	0xbc38d35c	-0.011280861
143	0xbc0976c3	-0.008390131
144	0x3d74be3b	0.05975173
145	0x3d498579	0.049199555
146	0xbc43ceb2	-0.0119511355
147	0xbd29416c	-0.041322157
148	0xb8cd5ad3	-9.792079e-05
149	0xb91415f9	-0.00014122565
150	0x3c6d05e4	0.0144667365
151	0x3d128a7d	0.035776604
152	0x3c1430db	0.009044851
153	0x3ccd38ce	0.0250515
154	0xbcdcd006	-0.026954662
155	0xbcb30f37	-0.021857841
156	0xbd572790	-0.052527964
157	0x3cb2ff5d	0.021850282
158	0xbc89bc7e	-0.016813513
159	0x3c6dc981	0.014513374
160	0xbce7ffa3	-0.02832014
161	0x3d034f74	0.032058194
162	0xbcbabb6d	-0.02279445
163	0x3d373bbc	0.0447347
164	0xbca9f6c5	-0.020747552
165	0xbc880cb0	-0.016607612
166	0xbca927bf	-0.020648835
167	0xbcba10b6	-0.022713047
168	0x3c4f2db6	0.012645176
169	0xbd244a61	-0.040109996
170	0x3cdcabcc	0.026937388
171	0xbd1c1c19	-0.038112734
172	0x3d22eb19	0.039774988
173	0xbdb98262	-0.09058072
174	0x3d48b460	0.049000144
175	0xbcb594f9	-0.022165762
176	0xbd1c6ab2	-0.03818769
177	0x3c82ebec	0.015981637
178	0x3bdc61a2	0.006725506
179	0x3d45a379	0.048251603
180	0x3a57195c	0.0008205378
181	0x3d0a7c33	0.03380985
182	0x3bff3996	0.007788847
183	0xbc65d704	-0.0140283145
184	0xbd237732	-0.039908595
185	0xbcbfa6ef	-0.02339503
186	0x3cad3038	0.021141157
187	0x3a4ea168	0.0007882328
188	0x3c5bdd1f	0.013419419
189	0x3d02c0f6	0.031922303
190	0xbccbeded	-0.024893725
191	0x3c8632d8	0.016381666
192	0x3b3fa267	0.0029241086
193	0xbcf3f3da	-0.029779363
194	0x3d4ebebf	0.05047488
195	0x3d7d0baf	0.06177872
196	0xbca9b4cc	-0.020716093
197	0x3b905ced	0.004405609
198	0x3c4dacca	0.012553403
199	0xbcfaa0f0	-0.03059432
200	0x3d19845f	0.037479755
201	0x3cfe950f	0.031076936
202	0x3d1dc623	0.038519036
203	0x3d060a9d	0.032724965
204	0x3c24bebd	0.010055241
205	0xbcc59b54	-0.024121918
206	0xbc816c3e	-0.015798684
207	0xbd05b2a4	-0.032641068
208	0x3c9703f2	0.018434498
209	0xbcebc730	-0.028781503
210	0x3c43931d	0.01193693
211	0xbc9da45e	-0.019243415
212	0x3bc1b27c	0.0059111696
213	0xbc79c565	-0.015244816
214	0xba61daf7	-0.0008615697
215	0x3c2eb81c	0.010664012
216	0x3c80c1cb	0.015717408
217	0x3cd623b7	0.026140077
218	0xbc93ff3b	-0.01806604
219	0xbc586d2c	-0.013209622
220	0xbc9d82d0	-0.019227415
221	0x3a84fa22	0.0010145346
222	0xbc228e4b	-0.009921621
223	0xbbcf63f8	-0.006329056
224	0x3cc16fd4	0.023612894
225	0xbc9be75d	-0.019031221
226	0x3b45ef99	0.0030202626
227	0x3d080237	0.033205237
228	0xbd158b9a	-0.036510088
229	0xbcf9f227	-0.030510975
230	0xbcfce08d	-0.030868793
231	0x3c17657f	0.009240507
232	0x3b40e17f	0.002943128
233	0x3be849e1	0.007088885
234	0x3c8dc56d	0.017306054
235	0xbc0e61bd	-0.008690295
236	0xba975625	-0.0011546059
237	0xbc06f26c	-0.008236509
238	0x3d4a8abb	0.04944871
239	0x3bbbdb76	0.005732949
240	0xbce6b6d9	-0.02816336
241	0x3cba37f2	0.022731755
242	0xbca02dfa	-0.019553173
243	0x3d11a479	0.035557244
244	0xbd3a6a12	-0.045511313
245	0x3d17c49e	0.037052743
246	0xbb4f25d4	-0.003160824
247	0x3c213b80	0.009840846
248	0x3b5daa93	0.0033823594
249	0x3cae84fc	0.021303646
250	0xbd01e85f	-0.031715747
251	0xbc80b24b	-0.015710017
252	0x3c4a6e5b	0.012355412
253	0x3ca4bbbe	0.020109054
254	0x3b8f403b	0.0043716705
255	0x3bfc2b84	0.007695617

exp_avg f4 [1, 30, 5, 5]
0	0xb3a1db27	-7.53701e-08
1	0xb4065648	-1.2511111e-07
2	0xb40dbe14	-1.3200798e-07
3	0xb35f49c1	-5.1988312e-08
4	0xb33ed459	-4.443095e-08
5	0xb34c0b54	-4.7507754e-08
6	0xb2af92a7	-2.0439371e-08
7	0xaf6f8aeb	-2.1786277e-10
8	0xb32e58b3	-4.0593203e-08
9	0x313ea1a1	2.7740514e-09
10	0xb35e3133	-5.173315e-08
11	0xb4106fd0	-1.3451722e-07
12	0xb3e234ec	-1.05335715e-07
13	0xb3c0ead1	-8.9834096e-08
14	0xb40e82fe	-1.3272435e-07
15	0xb34b62cd	-4.735448e-08
16	0xb391ecc5	-6.795157e-08
17	0xb3b22c0e	-8.2967844e-08
18	0xb3cec72c	-9.628852e-08
19	0xb3d7847e	-1.0035818e-07
20	0xb300d3d4	-2.999498e-08
21	0x31e86b09	6.764257e-09
22	0xb3cc531e	-9.514609e-08
23	0xb305a649	-3.111771e-08
24	0xb1e54ae2	-6.6732904e-09
25	0x33bf4ba8	8.9078924e-08
26	0x334ef758	4.818807e-08
27	0x32f34c7d	2.8323706e-08
28	0x33ecebb0	1.1032478e-07
29	0x336cb534	5.5112835e-08
30	0x3385b050	6.225366e-08
31	0x340bc3c1	1.3016599e-07
32	0x340643e1	1.2504417e-07
33	0x33e579ab	1.0685775e-07
34	0x33f7268f	1.15088476e-07
35	0x32cad5b1	2.361307e-08
36	0x33084e2a	3.1736057e-08
37	0x32160a82	8.733538e-09
38	0x333ed3f1	4.4430582e-08
39	0x332f136f	4.0763037e-08
40	0x326abe26	1.3663827e-08
41	0xb21be19a	-9.073483e-09
42	0x32ecc14c	2.7561917e-08
43	0x31fbbead	7.3267388e-09
44	0xb283e942	-1.535648e-08
45	0xae9a9b9b	-7.03075e-11
46	0x326fde88	1.3962229e-08
47	0x3383f6ee	6.145079e-08
48	0xb308117d	-3.1680873e-08
49	0xb3467dc1	-4.621484e-08
50	0x33a105b7	7.498186e-08
51	0x331e8883	3.69114e-08
52	0xb1d7c206	-6.2793815e-09
53	0x330511ab	3.0982545e-08
54	0xb337ea46	-4.282108e-08
55	0x32b93d84	2.1564809e-08
56	0x33896567	6.3980046e-08
57	0x326f8612	1.3942115e-08
58	0xb08dabf9	-1.0307978e-09
59	0x32cfe49f	2.4201936e-08
60	0x325917c9	1.26364705e-08
61	0xb2a186ab	-1.8804107e-08
62	0x33393635	4.312297e-08
63	0xb27ae4c8	-1.4603934e-08
64	0xb3154e1f	-3.4762817e-08
65	0xb2a700a5	-1.9441652e-08
66	0xb2e74da1	-2.692724e-08
67	0x338e00ec	6.612558e-08
68	0xb2a0ce11	-1.872016e-08
69	0xb34549a7	-4.5934623e-08
70	0xb39fe8c9	-7.446358e-08
71	0xb18ff426	-4.189604e-09
72	0x32fd50ab	2.948976e-08
73	0x30a06698	1.1670691e-09
74	0xb29d6560	-1.8323306e-08
75	0xb330f5e3	-4.1201826e-08
76	0xb1d5370b	-6.2053735e-09
77	0xb2d5f436	-2.4907518e-08
78	0x33a311c8	7.5935134e-08
79	0x336be10b	5.4919877e-08
80	0xb3f0b65e	-1.1209043e-07
81	0xb273c04b	-1.4188184e-08
82	0x3284de61	1.5467949e-08
83	0x330be0a2	3.2567762e-08
84	0x338f5f91	6.67634e-08
85	0xb33b1320	-4.3556724e-08
86	0xb228a645	-9.816692e-09
87	0xae135b42	-3.3504984e-11
88	0x33a20b50	7.5457706e-08
89	0xb30b17e0	-3.2385174e-08
90	0x32230810	9.489682e-09
91	0xb2f153ee	-2.809426e-08
92	0x33192c37	3.56633e-08
93	0x339a2b09	7.179012e-08
94	0xb31cebbd	-3.6535983e-08
95	0xb2928e96	-1.7061478e-08
96	0x31b9a941	5.4034506e-09
97	0x32848659	1.5427917e-08
98	0x3352e9bf	4.9107026e-08
99	0x31896f19	3.999855e-09
100	0xb3862651	-6.246831e-08
101	0xb3252e12	-3.8458957e-08
102	0xb40d1456	-1.3139046e-07
103	0xb3ef170c	-1.1133497e-07
104	0xb3adb041	-8.088001e-08
105	0x32ec00b6	2.747434e-08
106	0x328d7efd	1.6472308e-08
107	0xb1df3dfb	-6.4972006e-09
108	0xb2251d45	-9.610919e-09
109	0xb32c0043	-4.004711e-08
110	0xb3019289	-3.0168426e-08
111	0xb3977a5f	-7.0537446e-08
112	0xb3c4446c	-9.139407e-08
113	0xb3c32183	-9.086491e-08
114	0xb3e90cdd	-1.0852248e-07
115	0xb3854f42	-6.207712e-08
116	0xb39f84a8	-7.4281445e-08
117	0xb0faf951	-1.8260754e-09
118	0xb361e708	-5.2597017e-08
119	0xb3ce1f52	-9.59832e-08
120	0xb366c787	-5.3732517e-08
121	0xb312d21b	-3.4184364e-08
122	0x331bb5f7	3.6254246e-08
123	0xb33bcd54	-4.3726075e-08
124	0xb365e46f	-5.3525977e-08
125	0x3326ca86	3.883408e-08
126	0x32e5829e	2.6718507e-08
127	0x33b76eac	8.541733e-08
128	0x340cb628	1.3104784e-07
129	0x335cc4ef	5.140185e-08
130	0x334df16f	4.7949865e-08
131	0x333c7339	4.3876955e-08
132	0x340358af	1.2232589e-07
133	0x341e8b79	1.4765637e-07
134	0x33f45ba7	1.1378807e-07
135	0x330e2cae	3.3102587e-08
136	0x317a37d5	3.6411525e-09
137	0x333eae9f	4.439664e-08
138	0x33f994e3	1.16220484e-07
139	0x319139b5	4.226616e-09
140	0xb1697a4f	-3.3975487e-09
141	0xb17c39ab	-3.6703607e-09
142	0x3338a3a2	4.298966e-08
143	0x33726127	5.6433375e-08
144	0xb2431ac6	-1.13565815e-08
145	0x3260598d	1.30588775e-08
146	0x2e0eb9e0	3.2452152e-11
147	0xb28b9cf5	-1.6253106e-08
148	0x3146c053	2.8922116e-09
149	0xb326a8ce	-3.8803414e-08
150	0xb43b8e41	-1.7467484e-07
151	0xb42053b7	-1.4931616e-07
152	0xb3a52238	-7.6896356e-08
153	0x33074ee8	3.15039e-08
154	0xb2bd92f0	-2.2069315e-08
155	0xb3be8098	-8.8709555e-08
156	0xb2e4e02a	-2.6644631e-08
157	0xb2d7d382	-2.5125477e-08
158	0x3317cacf	3.534188e-08
159	0x3377cb44	5.7694038e-08
160	0xb42fe781	-1.6382366e-07
161	0xb41fabaf	-1.4870487e-07
162	0xb3c0fd77	-8.986802e-08
163	0xb375f52a	-5.7266483e-08
164	0xb38da64b	-6.596073e-08
165	0xb37d84c6	-5.902691e-08
166	0xb386fc0d	-6.285709e-08
167	0xb382313e	-6.062554e-08
168	0xb2f5653f	-2.8567795e-08
169	0xb41940b9	-1.4272781e-07
170	0xb343ca5b	-4.5586017e-08
171	0xb3169580	-3.5060566e-08
172	0xb286c5ae	-1.5689547e-08
173	0x33364082	4.2433847e-08
174	0xb32fa15e	-4.0892125e-08
175	0x33f78314	1.1525677e-07
176	0x340747bc	1.2598952e-07
177	0x3333febb	4.190836e-08
178	0x33a38df8	7.616103e-08
179	0x329be9f8	1.8150772e-08
180	0x33357d5b	4.2256357e-08
181	0x34078ae6	1.2623386e-07
182	0x341abc19	1.4410797e-07
183	0x341109d9	1.350776e-07
184	0x339aa947	7.201975e-08
185	0x318f5276	4.1712225e-09
186	0x31a53983	4.8086704e-09
187	0x33a0c230	7.485903e-08
188	0x32dcd94a	2.5710182e-08
189	0xb1b1b259	-5.1716538e-09
190	0xb3829101	-6.079973e-08
191	0xb263dcd1	-1.3263347e-08
192	0x3375090c	5.7051736e-08
193	0x3211eba4	8.493689e-09
194	0xb310a770	-3.3679896e-08
195	0xb1258336	-2.4085245e-09
196	0xb1926058	-4.2601123e-09
197	0x333a9ffd	4.3452008e-08
198	0x332368b0	3.8046608e-08
199	0x32b19d34	2.0677e-08
200	0x326b84d1	1.3708999e-08
201	0xb3a530b2	-7.692269e-08
202	0xb3dea91e	-1.0368443e-07
203	0x337a8db1	5.833653e-08
204	0x32378414	1.0682033e-08
205	0x327d5506	1.474587e-08
206	0x33eba2fa	1.09726855e-07
207	0x3406081e	1.2482676e-07
208	0x338e4d73	6.626478e-08
209	0x33fd1b79	1.1786228e-07
210	0xb2f18d1b	-2.812026e-08
211	0xb3dcb885	-1.0278112e-07
212	0xb3cf73c9	-9.66025e-08
213	0xb34301b7	-4.5403535e-08
214	0xb3c57c3c	-9.1961255e-08
215	0xb310b306	-3.3690434e-08
216	0xb3a568dd	-7.702486e-08
217	0xb36df7b0	-5.5406133e-08
218	0xb3bf0b05	-8.896135e-08
219	0xb3f87e96	-1.1571426e-07
220	0xb3012120	-3.006528e-08
221	0x32b20a3b	2.072658e-08
222	0xb310b843	-3.3695198e-08
223	0xb386dbd3	-6.279847e-08
224	0xb36326a8	-5.2887714e-08
225	0xb37f3299	-5.9417832e-08
226	0xb2c85edd	-2.3326203e-08
227	0xb3164518	-3.4987437e-08
228	0x33e7358a	1.07665144e-07
229	0xb186a1ad	-3.9182937e-09
230	0xb3478399	-4.6452985e-08
231	0x33d5ddbf	9.958921e-08
232	0x33ff8372	1.18982726e-07
233	0x3436fc98	1.7041964e-07
234	0x340b4750	1.2971327e-07
235	0xb42b6d00	-1.596527e-07
236	0xb41a8211	-1.4389686e-07
237	0xb280ed31	-1.5009023e-08
238	0xb307887a	-3.155626e-08
239	0xb398c151	-7.1132156e-08
240	0xb400a9a2	-1.1982641e-07
241	0xb3a37794	-7.61203e-08
242	0xb1758eec	-3.5733434e-09
243	0xb2ac6fdd	-2.0074305e-08
244	0xb43d6a9e	-1.7640784e-07
245	0xb34e2259	-4.799435e-08
246	0xb328e1e9	-3.9321012e-08
247	0x32ee7985	2.7762107e-08
248	0x33acd4b7	8.048067e-08
249	0xb2ada542	-2.0215001e-08
250	0x331115ab	3.378015e-08
251	0x3303e1a4	3.0706033e-08
252	0xb305f300	-3.1187483e-08
253	0x33e59a55	1.0691716e-07
254	0x324fdb64	1.20988695e-08
255	0xb3c266c9	-9.0525255e-08

exp_inf f4 [1, 30, 5, 5]
0	0x37cb6759	2.424761e-05
1	0x37e0cd1c	2.6798392e-05
2	0x38021857	3.1017084e-05
3	0x380245c1	3.105938e-05
4	0x37a7ab71	1.9987785e-05
5	0x381883a9	3.6362242e-05
6	0x385a2032	5.2005234e-05
7	0x38371000	4.36455e-05
8	0x38553bc3	5.0838815e-05
9	0x380bb5c2	3.3309458e-05
10	0x38192852	3.6515594e-05
11	0x387e6846	6.065543e-05
12	0x384d96e6	4.9016344e-05
13	0x38595819	5.181888e-05
14	0x3825702b	3.944353e-05
15	0x3827601a	3.9905404e-05
16	0x38598493	5.18603e-05
17	0x385c0fe0	5.2466872e-05
18	0x387002e8	5.7223166e-05
19	0x3810695d	3.4430403e-05
20	0x381d2639	3.7467315e-05
21	0x384d14af	4.889507e-05
22	0x383ada18	4.454897e-05
23	0x3858a60c	5.1653056e-05
24	0x380a2d36	3.294387e-05
25	0x3819b37a	3.6645193e-05
26	0x38586d0c	5.159997e-05
27	0x38385f1a	4.395759e-05
28	0x385385aa	5.0430805e-05
29	0x380d1335	3.3634908e-05
30	0x381a788f	3.682874e-05
31	0x387cd4d6	6.02797e-05
32	0x384f09d4	4.93618e-05
33	0x3857bc0e	5.1435134e-05
34	0x3826df41	3.9785406e-05
35	0x3824b529	3.9269366e-05
36	0x385c8bf4	5.258243e-05
37	0x38595225	5.1813335e-05
38	0x3872fd2c	5.793308e-05
39	0x380dadba	3.3778815e-05
40	0x381a7cb7	3.683261e-05
41	0x38500b9c	4.9601877e-05
42	0x38385569	4.3948563e-05
43	0x385b8ca6	5.2344658e-05
44	0x3807825c	3.2307915e-05
45	0x37c2e9b9	2.3235438e-05
46	0x37f7c61b	2.9536945e-05
47	0x3801c4d5	3.093931e-05
48	0x37d3a595	2.5230265e-05
49	0x37ccc34b	2.4409635e-05
50	0x37d0866e	2.4858131e-05
51	0x38205f60	3.8235798e-05
52	0x38282cdd	4.0096103e-05
53	0x383fa185	4.5688375e-05
54	0x381aa2a0	3.6867918e-05
55	0x37d31577	2.5163155e-05
56	0x385244b0	5.0131872e-05
57	0x3869039f	5.55549e-05
58	0x384c0d37	4.8649697e-05
59	0x38457846	4.7080473e-05
60	0x38004605	3.058279e-05
61	0x38454c0e	4.703929e-05
62	0x3862fb8d	5.4116874e-05
63	0x385a5d6b	5.2062253e-05
64	0x38387244	4.3975437e-05
65	0x37e794d4	2.760665e-05
66	0x383bf532	4.481263e-05
67	0x3852e2a6	5.0278984e-05
68	0x38713160	5.750486e-05
69	0x3847b17a	4.7610585e-05
70	0x37bdc019	2.2620008e-05
71	0x382e931b	4.1621835e-05
72	0x38357e7b	4.3271557e-05
73	0x3822293f	3.8662223e-05
74	0x381a9dbd	3.6863366e-05
75	0x381e504b	3.7744914e-05
76	0x3826bce4	3.9753402e-05
77	0x3841c407	4.619735e-05
78	0x381bf381	3.718166e-05
79	0x37a4fe20	1.966866e-05
80	0x3853b289	5.0472594e-05
81	0x386a0aa9	5.5799876e-05
82	0x384a87c9	4.8287013e-05
83	0x3844fdc4	4.696638e-05
84	0x37dd2785	2.6363656e-05
85	0x3843695c	4.6589746e-05
86	0x3861a956	5.3801887e-05
87	0x385c6757	5.254833e-05
88	0x3839ca5e	4.4295906e-05
89	0x37f28e46	2.89149e-05
90	0x383d6f70	4.5164896e-05
91	0x3853c5d8	5.0490577e-05
92	0x386fe80b	5.7198147e-05
93	0x3846e066	4.7415866e-05
94	0x37c3f656	2.336052e-05
95	0x382cafbd	4.1171665e-05
96	0x38342ea1	4.295877e-05
97	0x3823fa35	3.9095252e-05
98	0x381c2e9b	3.7236703e-05
99	0x37be4376	2.2681179e-05
100	0x3787095a	1.6097609e-05
101	0x376ac43a	1.3993174e-05
102	0x37996d49	1.8289911e-05
103	0x37786357	1.4805081e-05
104	0x3792fdbb	1.7522709e-05
105	0x37411785	1.15091725e-05
106	0x37977afe	1.8057875e-05
107	0x37014707	7.7055365e-06
108	0x37944a2f	1.767752e-05
109	0x36d86065	6.4485234e-06
110	0x376e7030	1.4212026e-05
111	0x3730a49c	1.0528744e-05
112	0x37a5cb08	1.9764077e-05
113	0x36e1e195	6.7317837e-06
114	0x376d2d6f	1.4136879e-05
115	0x371d3c60	9.371986e-06
116	0x3787ad10	1.6173843e-05
117	0x37145bfa	8.842902e-06
118	0x3782b58f	1.5581752e-05
119	0x371f80d4	9.507134e-06
120	0x374d2690	1.2227931e-05
121	0x369fcad8	4.7621834e-06
122	0x378106c5	1.538115e-05
123	0x36c3c7ec	5.834727e-06
124	0x37807f21	1.5317988e-05
125	0x3783378b	1.5642281e-05
126	0x36db8cc2	6.543095e-06
127	0x37954294	1.7793187e-05
128	0x36b2d332	5.3293998e-06
129	0x375c3a61	1.3126614e-05
130	0x3722e3d7	9.709001e-06
131	0x37894abe	1.6366477e-05
132	0x36f5061d	7.3022807e-06
133	0x37812a55	1.539771e-05
134	0x374dea6a	1.2273531e-05
135	0x3787eea6	1.6204383e-05
136	0x370dae0d	8.444779e-06
137	0x379a8e68	1.8424544e-05
138	0x373088b3	1.0522245e-05
139	0x37518c70	1.2490069e-05
140	0x36df7ae9	6.6602265e-06
141	0x378d99cc	1.6880127e-05
142	0x36fa6c91	7.4632194e-06
143	0x37917241	1.733855e-05
144	0x37219867	9.631832e-06
145	0x37629bfd	1.3506969e-05
146	0x374af9ec	1.2098328e-05
147	0x3768b34b	1.38700225e-05
148	0x375749c3	1.2832173e-05
149	0x378595c8	1.5924583e-05
150	0x3756d05a	1.2803905e-05
151	0x37142a09	8.8312745e-06
152	0x37819c5d	1.545081e-05
153	0x379635c6	1.7906434e-05
154	0x376cef23	1.41223745e-05
155	0x36b6aa9d	5.4438847e-06
156	0x379fe499	1.9060726e-05
157	0x36ee519c	7.1024533e-06
158	0x37a28bb2	1.9376956e-05
159	0x3764f0dc	1.3645938e-05
160	0x3784127d	1.5744235e-05
161	0x36e1fb9f	6.734815e-06
162	0x3749b0d1	1.2021702e-05
163	0x3716081f	8.942588e-06
164	0x375b8794	1.3084984e-05
165	0x36de1de9	6.6195976e-06
166	0x375afaed	1.3052236e-05
167	0x36f6c3be	7.3541587e-06
168	0x3791e252	1.7390736e-05
169	0x36c97e9a	6.005005e-06
170	0x37628da5	1.3503629e-05
171	0x368e03e5	4.232383e-06
172	0x3797313a	1.8023526e-05
173	0x36c14cfe	5.7608113e-06
174	0x3750ced0	1.2445918e-05
175	0x37419b21	1.1539815e-05
176	0x36eb5cdc	7.014356e-06
177	0x37b13f12	2.1129414e-05
178	0x36d9605a	6.4783208e-06
179	0x376e4469	1.4201833e-05
180	0x36d38f11	6.304945e-06
181	0x378a9e24	1.6524522e-05
182	0x36feb715	7.5911034e-06
183	0x371ae08e	9.2313985e-06
184	0x370d4764	8.420877e-06
185	0x3760ce0f	1.3399417e-05
186	0x37098724	8.197301e-06
187	0x37882526	1.6229762e-05
188	0x3732ce5e	1.0657675e-05
189	0x379828d5	1.8138826e-05
190	0x376e88a0	1.4217716e-05
191	0x37a75a53	1.9950012e-05
192	0x36c3ada1	5.831666e-06
193	0x378a7e79	1.6509775e-05
194	0x36ad9049	5.172599e-06
195	0x37832ee8	1.563826e-05
196	0x379a4740	1.8391409e-05
197	0x376b7992	1.4035397e-05
198	0x3704336e	7.8797875e-06
199	0x37680adb	1.3830805e-05
200	0x387f61b8	6.0887745e-05
201	0x38a46717	7.8393314e-05
202	0x389d3903	7.496963e-05
203	0x38aae2f2	8.1485035e-05
204	0x385debf7	5.2910265e-05
205	0x38997b74	7.3186035e-05
206	0x38eb77ea	0.00011228009
207	0x38c30a3c	9.300231e-05
208	0x38d67923	0.00010226879
209	0x389947d8	7.3089905e-05
210	0x389eebf7	7.577979e-05
211	0x38ed7795	0.000113233145
212	0x38d371cd	0.00010082461
213	0x38e627eb	0.0001097469
214	0x38998c52	7.321745e-05
215	0x38a0ebbf	7.673306e-05
216	0x38d4c564	0.000101457146
217	0x38ca2ff1	9.6410404e-05
218	0x38e5c4fa	0.00010956261
219	0x388bf30f	6.67331e-05
220	0x387e95c5	6.0697803e-05
221	0x38a47907	7.8426725e-05
222	0x389e4cd2	7.548336e-05
223	0x38a139bb	7.6878314e-05
224	0x38708963	5.734841e-05
225	0x37c162d1	2.3053408e-05
226	0x376607d2	1.3710889e-05
227	0x37bb880e	2.2355493e-05
228	0x37a5ed7b	1.9780118e-05
229	0x3790b9f6	1.7252733e-05
230	0x37017630	7.716517e-06
231	0x38153bdc	3.5580117e-05
232	0x375cb8bb	1.3156033e-05
233	0x37ac6f57	2.0555844e-05
234	0x37857fde	1.5914378e-05
235	0x379d0953	1.87202e-05
236	0x3756a0f4	1.2792869e-05
237	0x37c5ee7b	2.3595281e-05
238	0x3757236e	1.2823248e-05
239	0x37abfd19	2.0502646e-05
240	0x373de5e0	1.13188e-05
241	0x37da58d2	2.6028985e-05
242	0x375a42a1	1.3009326e-05
243	0x380e2af5	3.3895445e-05
244	0x37303b44	1.0504216e-05
245	0x378383fc	1.5677877e-05
246	0x378db0eb	1.6890894e-05
247	0x378a84b4	1.6512677e-05
248	0x37547628	1.2663695e-05
249	0x37dc61d9	2.6271608e-05
250	0x388346f8	6.259786e-05
251	0x38a38b5e	7.798405e-05
252	0x38b4f59b	8.6288164e-05
253	0x38adc7cb	8.286497e-05
254	0x386d1c2c	5.653144e-05
255	0x389e9be7	7.563066e-05
